CNNNetwork(
  (conv1): Conv2d(3, 17, kernel_size=(3, 3), stride=(1, 1))
  (conv2): Conv2d(17, 32, kernel_size=(3, 3), stride=(1, 1))
  (conv3): Conv2d(32, 48, kernel_size=(3, 3), stride=(1, 1))
  (conv4): Conv2d(48, 64, kernel_size=(3, 3), stride=(1, 1))
  (conv5): Conv2d(64, 96, kernel_size=(3, 3), stride=(1, 1))
  (conv6): Conv2d(96, 128, kernel_size=(3, 3), stride=(1, 1))
  (conv7): Conv2d(128, 128, kernel_size=(3, 3), stride=(1, 1))
  (conv8): Conv2d(128, 128, kernel_size=(3, 3), stride=(1, 1))
  (fc1): Linear(in_features=3200, out_features=700, bias=True)
  (fc2): Linear(in_features=700, out_features=4, bias=True)
  (dropout): Dropout(p=0.5, inplace=False)
  (localization): Sequential(
    (0): Conv2d(3, 8, kernel_size=(7, 7), stride=(1, 1))
    (1): MaxPool2d(kernel_size=2, stride=2, padding=0, dilation=1, ceil_mode=True)
    (2): ReLU(inplace=True)
    (3): Conv2d(8, 10, kernel_size=(5, 5), stride=(1, 1))
    (4): MaxPool2d(kernel_size=2, stride=2, padding=0, dilation=1, ceil_mode=True)
    (5): ReLU(inplace=True)
    (6): Conv2d(10, 12, kernel_size=(5, 5), stride=(1, 1))
    (7): MaxPool2d(kernel_size=2, stride=2, padding=0, dilation=1, ceil_mode=True)
    (8): ReLU(inplace=True)
    (9): Conv2d(12, 15, kernel_size=(5, 5), stride=(1, 1))
    (10): MaxPool2d(kernel_size=2, stride=2, padding=0, dilation=1, ceil_mode=True)
    (11): ReLU(inplace=True)
  )
  (fc_loc): Sequential(
    (0): Linear(in_features=375, out_features=64, bias=True)
    (1): ReLU(inplace=True)
    (2): Linear(in_features=64, out_features=6, bias=True)
  )
)
Epoch 1
-------------------------------
loss: 1.386157  [    0/    5]
loss: 1.390616  [    1/    5]
loss: 1.386149  [    2/    5]
loss: 1.387929  [    3/    5]
loss: 1.386460  [    4/    5]
average one epoch loss: 1.387462
Test Error: 
Accuracy: 20.0%, Avg loss: 1.386294 

Epoch 2
-------------------------------
loss: 1.386225  [    0/    5]
loss: 1.385805  [    1/    5]
…
