
ResNet(
  (conv1): Conv2d(3, 64, kernel_size=(7, 7), stride=(2, 2), padding=(3, 3)
, bias=False)
  (bn1): BatchNorm2d(64, eps=1e-05, momentum=0.1, affine=True, track_runni
ng_stats=True)
  (relu): ReLU(inplace=True)
  (maxpool): MaxPool2d(kernel_size=3, stride=2, padding=1, dilation=1, cei
l_mode=False)
  (layer1): Sequential(
    (0): Bottleneck(
      (conv1): Conv2d(64, 64, kernel_size=(1, 1), stride=(1, 1), bias=Fals
e)
      (bn1): BatchNorm2d(64, eps=1e-05, momentum=0.1, affine=True, track_r
unning_stats=True)
      (conv2): Conv2d(64, 64, kernel_size=(3, 3), stride=(1, 1), padding=(
1, 1), bias=False)
      (bn2): BatchNorm2d(64, eps=1e-05, momentum=0.1, affine=True, track_r
unning_stats=True)
      (conv3): Conv2d(64, 256, kernel_size=(1, 1), stride=(1, 1), bias=Fal
se)
      (bn3): BatchNorm2d(256, eps=1e-05, momentum=0.1, affine=True, track_
running_stats=True)
      (relu): ReLU(inplace=True)
      (downsample): Sequential(
        (0): Conv2d(64, 256, kernel_size=(1, 1), stride=(1, 1), bias=False
)
        (1): BatchNorm2d(256, eps=1e-05, momentum=0.1, affine=True, track_
running_stats=True)
      )
    )
    (1): Bottleneck(
      (conv1): Conv2d(256, 64, kernel_size=(1, 1), stride=(1, 1), bias=Fal
se)
      (bn1): BatchNorm2d(64, eps=1e-05, momentum=0.1, affine=True, track_r
unning_stats=True)
      (conv2): Conv2d(64, 64, kernel_size=(3, 3), stride=(1, 1), padding=(
1, 1), bias=False)
      (bn2): BatchNorm2d(64, eps=1e-05, momentum=0.1, affine=True, track_r
unning_stats=True)
      (conv3): Conv2d(64, 256, kernel_size=(1, 1), stride=(1, 1), bias=Fal
se)
      (bn3): BatchNorm2d(256, eps=1e-05, momentum=0.1, affine=True, track_
running_stats=True)
      (relu): ReLU(inplace=True)
    )
    (2): Bottleneck(
      (conv1): Conv2d(256, 64, kernel_size=(1, 1), stride=(1, 1), bias=Fal
se)
      (bn1): BatchNorm2d(64, eps=1e-05, momentum=0.1, affine=True, track_r
unning_stats=True)
      (conv2): Conv2d(64, 64, kernel_size=(3, 3), stride=(1, 1), padding=(
1, 1), bias=False)
      (bn2): BatchNorm2d(64, eps=1e-05, momentum=0.1, affine=True, track_r
unning_stats=True)
      (conv3): Conv2d(64, 256, kernel_size=(1, 1), stride=(1, 1), bias=Fal
se)
      (bn3): BatchNorm2d(256, eps=1e-05, momentum=0.1, affine=True, track_
running_stats=True)
      (relu): ReLU(inplace=True)
    )
  )
  (layer2): Sequential(
    (0): Bottleneck(
      (conv1): Conv2d(256, 128, kernel_size=(1, 1), stride=(1, 1), bias=Fa
lse)
      (bn1): BatchNorm2d(128, eps=1e-05, momentum=0.1, affine=True, track_
running_stats=True)
      (conv2): Conv2d(128, 128, kernel_size=(3, 3), stride=(2, 2), padding
=(1, 1), bias=False)
      (bn2): BatchNorm2d(128, eps=1e-05, momentum=0.1, affine=True, track_
running_stats=True)
      (conv3): Conv2d(128, 512, kernel_size=(1, 1), stride=(1, 1), bias=Fa
lse)
      (bn3): BatchNorm2d(512, eps=1e-05, momentum=0.1, affine=True, track_
running_stats=True)
      (relu): ReLU(inplace=True)
      (downsample): Sequential(
        (0): Conv2d(256, 512, kernel_size=(1, 1), stride=(2, 2), bias=Fals
e)
        (1): BatchNorm2d(512, eps=1e-05, momentum=0.1, affine=True, track_
running_stats=True)
      )
    )
    (1): Bottleneck(
      (conv1): Conv2d(512, 128, kernel_size=(1, 1), stride=(1, 1), bias=Fa
lse)
      (bn1): BatchNorm2d(128, eps=1e-05, momentum=0.1, affine=True, track_
running_stats=True)
      (conv2): Conv2d(128, 128, kernel_size=(3, 3), stride=(1, 1), padding
=(1, 1), bias=False)
      (bn2): BatchNorm2d(128, eps=1e-05, momentum=0.1, affine=True, track_
running_stats=True)
      (conv3): Conv2d(128, 512, kernel_size=(1, 1), stride=(1, 1), bias=Fa
lse)
      (bn3): BatchNorm2d(512, eps=1e-05, momentum=0.1, affine=True, track_
running_stats=True)
      (relu): ReLU(inplace=True)
    )
    (2): Bottleneck(
      (conv1): Conv2d(512, 128, kernel_size=(1, 1), stride=(1, 1), bias=Fa
lse)
      (bn1): BatchNorm2d(128, eps=1e-05, momentum=0.1, affine=True, track_
running_stats=True)
      (conv2): Conv2d(128, 128, kernel_size=(3, 3), stride=(1, 1), padding
=(1, 1), bias=False)
      (bn2): BatchNorm2d(128, eps=1e-05, momentum=0.1, affine=True, track_
running_stats=True)
      (conv3): Conv2d(128, 512, kernel_size=(1, 1), stride=(1, 1), bias=Fa
lse)
      (bn3): BatchNorm2d(512, eps=1e-05, momentum=0.1, affine=True, track_
running_stats=True)
      (relu): ReLU(inplace=True)
    )
    (3): Bottleneck(
      (conv1): Conv2d(512, 128, kernel_size=(1, 1), stride=(1, 1), bias=Fa
lse)
      (bn1): BatchNorm2d(128, eps=1e-05, momentum=0.1, affine=True, track_
running_stats=True)
      (conv2): Conv2d(128, 128, kernel_size=(3, 3), stride=(1, 1), padding
=(1, 1), bias=False)
      (bn2): BatchNorm2d(128, eps=1e-05, momentum=0.1, affine=True, track_
running_stats=True)
      (conv3): Conv2d(128, 512, kernel_size=(1, 1), stride=(1, 1), bias=Fa
lse)
      (bn3): BatchNorm2d(512, eps=1e-05, momentum=0.1, affine=True, track_
running_stats=True)
      (relu): ReLU(inplace=True)
    )
  )
  (layer3): Sequential(
    (0): Bottleneck(
      (conv1): Conv2d(512, 256, kernel_size=(1, 1), stride=(1, 1), bias=Fa
lse)
      (bn1): BatchNorm2d(256, eps=1e-05, momentum=0.1, affine=True, track_
running_stats=True)
      (conv2): Conv2d(256, 256, kernel_size=(3, 3), stride=(2, 2), padding
=(1, 1), bias=False)
      (bn2): BatchNorm2d(256, eps=1e-05, momentum=0.1, affine=True, track_
running_stats=True)
      (conv3): Conv2d(256, 1024, kernel_size=(1, 1), stride=(1, 1), bias=F
alse)
      (bn3): BatchNorm2d(1024, eps=1e-05, momentum=0.1, affine=True, track
_running_stats=True)
      (relu): ReLU(inplace=True)
      (downsample): Sequential(
        (0): Conv2d(512, 1024, kernel_size=(1, 1), stride=(2, 2), bias=Fal
se)
        (1): BatchNorm2d(1024, eps=1e-05, momentum=0.1, affine=True, track
_running_stats=True)
      )
    )
    (1): Bottleneck(
      (conv1): Conv2d(1024, 256, kernel_size=(1, 1), stride=(1, 1), bias=F
alse)
      (bn1): BatchNorm2d(256, eps=1e-05, momentum=0.1, affine=True, track_
running_stats=True)
      (conv2): Conv2d(256, 256, kernel_size=(3, 3), stride=(1, 1), padding
=(1, 1), bias=False)
      (bn2): BatchNorm2d(256, eps=1e-05, momentum=0.1, affine=True, track_
running_stats=True)
      (conv3): Conv2d(256, 1024, kernel_size=(1, 1), stride=(1, 1), bias=F
alse)
      (bn3): BatchNorm2d(1024, eps=1e-05, momentum=0.1, affine=True, track
_running_stats=True)
      (relu): ReLU(inplace=True)
    )
    (2): Bottleneck(
      (conv1): Conv2d(1024, 256, kernel_size=(1, 1), stride=(1, 1), bias=F
alse)
      (bn1): BatchNorm2d(256, eps=1e-05, momentum=0.1, affine=True, track_
running_stats=True)
      (conv2): Conv2d(256, 256, kernel_size=(3, 3), stride=(1, 1), padding
=(1, 1), bias=False)
      (bn2): BatchNorm2d(256, eps=1e-05, momentum=0.1, affine=True, track_
running_stats=True)
      (conv3): Conv2d(256, 1024, kernel_size=(1, 1), stride=(1, 1), bias=F
alse)
      (bn3): BatchNorm2d(1024, eps=1e-05, momentum=0.1, affine=True, track
_running_stats=True)
      (relu): ReLU(inplace=True)
    )
    (3): Bottleneck(
      (conv1): Conv2d(1024, 256, kernel_size=(1, 1), stride=(1, 1), bias=F
alse)
      (bn1): BatchNorm2d(256, eps=1e-05, momentum=0.1, affine=True, track_
running_stats=True)
      (conv2): Conv2d(256, 256, kernel_size=(3, 3), stride=(1, 1), padding
=(1, 1), bias=False)
      (bn2): BatchNorm2d(256, eps=1e-05, momentum=0.1, affine=True, track_
running_stats=True)
      (conv3): Conv2d(256, 1024, kernel_size=(1, 1), stride=(1, 1), bias=F
alse)
      (bn3): BatchNorm2d(1024, eps=1e-05, momentum=0.1, affine=True, track
_running_stats=True)
      (relu): ReLU(inplace=True)
    )
    (4): Bottleneck(
      (conv1): Conv2d(1024, 256, kernel_size=(1, 1), stride=(1, 1), bias=F
alse)
      (bn1): BatchNorm2d(256, eps=1e-05, momentum=0.1, affine=True, track_
running_stats=True)
      (conv2): Conv2d(256, 256, kernel_size=(3, 3), stride=(1, 1), padding
=(1, 1), bias=False)
      (bn2): BatchNorm2d(256, eps=1e-05, momentum=0.1, affine=True, track_
running_stats=True)
      (conv3): Conv2d(256, 1024, kernel_size=(1, 1), stride=(1, 1), bias=F
alse)
      (bn3): BatchNorm2d(1024, eps=1e-05, momentum=0.1, affine=True, track
_running_stats=True)
      (relu): ReLU(inplace=True)
    )
    (5): Bottleneck(
      (conv1): Conv2d(1024, 256, kernel_size=(1, 1), stride=(1, 1), bias=F
alse)
      (bn1): BatchNorm2d(256, eps=1e-05, momentum=0.1, affine=True, track_
running_stats=True)
      (conv2): Conv2d(256, 256, kernel_size=(3, 3), stride=(1, 1), padding
=(1, 1), bias=False)
      (bn2): BatchNorm2d(256, eps=1e-05, momentum=0.1, affine=True, track_
running_stats=True)
      (conv3): Conv2d(256, 1024, kernel_size=(1, 1), stride=(1, 1), bias=F
alse)
      (bn3): BatchNorm2d(1024, eps=1e-05, momentum=0.1, affine=True, track
_running_stats=True)
      (relu): ReLU(inplace=True)
    )
  )
  (layer4): Sequential(
    (0): Bottleneck(
      (conv1): Conv2d(1024, 512, kernel_size=(1, 1), stride=(1, 1), bias=F
alse)
      (bn1): BatchNorm2d(512, eps=1e-05, momentum=0.1, affine=True, track_
running_stats=True)
      (conv2): Conv2d(512, 512, kernel_size=(3, 3), stride=(2, 2), padding
=(1, 1), bias=False)
      (bn2): BatchNorm2d(512, eps=1e-05, momentum=0.1, affine=True, track_
running_stats=True)
      (conv3): Conv2d(512, 2048, kernel_size=(1, 1), stride=(1, 1), bias=F
alse)
      (bn3): BatchNorm2d(2048, eps=1e-05, momentum=0.1, affine=True, track
_running_stats=True)
      (relu): ReLU(inplace=True)
      (downsample): Sequential(
        (0): Conv2d(1024, 2048, kernel_size=(1, 1), stride=(2, 2), bias=Fa
lse)
        (1): BatchNorm2d(2048, eps=1e-05, momentum=0.1, affine=True, track
_running_stats=True)
      )
    )
    (1): Bottleneck(
      (conv1): Conv2d(2048, 512, kernel_size=(1, 1), stride=(1, 1), bias=F
alse)
      (bn1): BatchNorm2d(512, eps=1e-05, momentum=0.1, affine=True, track_
running_stats=True)
      (conv2): Conv2d(512, 512, kernel_size=(3, 3), stride=(1, 1), padding
=(1, 1), bias=False)
      (bn2): BatchNorm2d(512, eps=1e-05, momentum=0.1, affine=True, track_
running_stats=True)
      (conv3): Conv2d(512, 2048, kernel_size=(1, 1), stride=(1, 1), bias=F
alse)
      (bn3): BatchNorm2d(2048, eps=1e-05, momentum=0.1, affine=True, track
_running_stats=True)
      (relu): ReLU(inplace=True)
    )
    (2): Bottleneck(
      (conv1): Conv2d(2048, 512, kernel_size=(1, 1), stride=(1, 1), bias=F
alse)
      (bn1): BatchNorm2d(512, eps=1e-05, momentum=0.1, affine=True, track_
running_stats=True)
      (conv2): Conv2d(512, 512, kernel_size=(3, 3), stride=(1, 1), padding
=(1, 1), bias=False)
      (bn2): BatchNorm2d(512, eps=1e-05, momentum=0.1, affine=True, track_
running_stats=True)
      (conv3): Conv2d(512, 2048, kernel_size=(1, 1), stride=(1, 1), bias=F
alse)
      (bn3): BatchNorm2d(2048, eps=1e-05, momentum=0.1, affine=True, track
_running_stats=True)
      (relu): ReLU(inplace=True)
    )
  )
  (avgpool): AdaptiveAvgPool2d(output_size=(1, 1))
  (fc): Linear(in_features=2048, out_features=4, bias=True)
)
Epoch 1
-------------------------------
loss: 1.354668  [    0/   10]
loss: 0.989437  [    1/   10]
loss: 1.347292  [    2/   10]
loss: 0.557538  [    3/   10]
loss: 0.532245  [    4/   10]
loss: 0.377344  [    5/   10]
loss: 0.378397  [    6/   10]
loss: 0.300249  [    7/   10]
loss: 0.301105  [    8/   10]
loss: 0.318057  [    9/   10]
average one epoch loss: 0.645633
…
