CNNNetwork(
  (conv1): Conv2d(3, 17, kernel_size=(3, 3), stride=(1, 1))
  (conv2): Conv2d(17, 32, kernel_size=(3, 3), stride=(1, 1))
  (conv3): Conv2d(32, 48, kernel_size=(3, 3), stride=(1, 1))
  (conv4): Conv2d(48, 64, kernel_size=(3, 3), stride=(1, 1))
  (conv5): Conv2d(64, 96, kernel_size=(3, 3), stride=(1, 1))
  (conv6): Conv2d(96, 128, kernel_size=(3, 3), stride=(1, 1))
  (conv7): Conv2d(128, 128, kernel_size=(3, 3), stride=(1, 1))
  (conv8): Conv2d(128, 128, kernel_size=(3, 3), stride=(1, 1))
  (fc1): Linear(in_features=3200, out_features=700, bias=True)
  (fc2): Linear(in_features=700, out_features=4, bias=True)
  (dropout): Dropout(p=0.5, inplace=False)
  (dropout2d): Dropout2d(p=0.5, inplace=False)
)
Epoch 1
-------------------------------
loss: 1.387566  [    0/   10]
loss: 1.386550  [    1/   10]
loss: 1.386524  [    2/   10]
loss: 1.384887  [    3/   10]
loss: 1.369267  [    4/   10]
loss: 1.427630  [    5/   10]
loss: 1.353113  [    6/   10]
loss: 1.364137  [    7/   10]
…
